best_weather_model.pth (torch, 15620 bytes, 7 tensors)

linear_relu_stack.0.weight f4 [64, 5]
0	0xbe23f930	-0.16013026
1	0x3d046761	0.032325152
2	0xbeabe42f	-0.33572528
3	0x3e12d2c4	0.14338213
4	0xbeb62795	-0.35577074
5	0xbecf55eb	-0.40495238
6	0x3e8e6f40	0.27819252
7	0xbe0785d4	-0.13234645
8	0xbcdc3d09	-0.026884573
9	0x3eb38f08	0.35070062
10	0xbebcab0d	-0.3684925
11	0xbe8e7e2d	-0.2783064
12	0x3d543be3	0.051814925
13	0x3ea14c26	0.3150341
14	0x3e16d076	0.14727959
15	0x3f8ca093	1.0986503
16	0xbeeb4280	-0.45949173
17	0x3e192bf2	0.1495817
18	0xbee7362b	-0.45158514
19	0x3d7c4481	0.061588768
20	0x3f540bee	0.82830703
21	0xbe2f9fcd	-0.17150803
22	0xbeb05abf	-0.34444234
23	0xbea4525f	-0.32094094
24	0x3c8f1fc1	0.017471196
25	0x3f079a61	0.5296994
26	0xbf04feac	-0.519511
27	0xbebf8aed	-0.3741068
28	0x3dd252be	0.10269688
29	0x3e1dfd46	0.15428647
30	0xbe5e80b7	-0.21728788
31	0x3e997d6a	0.29978496
32	0x3e3c41ee	0.18384525
33	0xbed600d0	-0.41797495
34	0xbeb2995d	-0.34882632
35	0xbe6026c6	-0.21889791
36	0xbd9624ce	-0.07331239
37	0xbe566345	-0.20936306
38	0x3e805573	0.25065193
39	0xbdd33130	-0.10312116
40	0x3ed57c04	0.4169618
41	0x3d9b1f6c	0.075743526
42	0xbe9f8538	-0.31156325
43	0xbd3e7d83	-0.046506416
44	0xbe050208	-0.12989056
45	0xbe3865c2	-0.18007568
46	0x3d5844ee	0.05280011
47	0x3eb609a6	0.35554236
48	0xbc39d255	-0.011341651
49	0xbe18bd4f	-0.14915965
50	0x3f2b986e	0.67029464
51	0xbf39e044	-0.7260783
52	0x3cf488a7	0.029850317
53	0xbd34ef5e	-0.04417359
54	0x3def86d2	0.11695637
55	0x3d0e7184	0.034776226
56	0x3ea33fbc	0.31884563
57	0x3e4705a9	0.19435753
58	0xbe755d2d	-0.23961325
59	0xbe916193	-0.28394756
60	0xbe829f27	-0.2551205
61	0xbeae3013	-0.34021053
62	0xbedbc101	-0.42920688
63	0x3ecfe445	0.40603843
64	0xbe1d76ed	-0.15377398
65	0xbed72c4c	-0.42025983
66	0xbe7f4bc8	-0.24931252
67	0xbe419c6b	-0.18907325
68	0xbd60f0ad	-0.054917026
69	0xbe8c5d8b	-0.27415118
70	0xbed85129	-0.4224942
71	0x3ed70921	0.41999152
72	0x3edf1c43	0.4357625
73	0xbee10479	-0.43948725
74	0xbebd0cb3	-0.3692375
75	0x3eb5199a	0.35371095
76	0x3da9f26a	0.0829819
77	0xbe4bbfe6	-0.19897422
78	0xbf55c7a5	-0.8350776
79	0x3cec399f	0.02883607
80	0x3ef69e93	0.48167858
81	0xbe18382d	-0.1486518
82	0xbe9c95e7	-0.30583116
83	0xbe98fce0	-0.29880428
84	0x3d0ea891	0.034828726
85	0x3ec6e158	0.388438
86	0xbf2a201d	-0.6645525
87	0x3d887fd9	0.0666501
88	0xbf271529	-0.6526666
89	0x3e087817	0.1332706
90	0x3f125688	0.57163286
91	0xbf493e14	-0.7861035
92	0xbe3f601a	-0.18689004
93	0xbedafa04	-0.42768872
94	0x3e68fbcb	0.22752301
95	0xbdcf76c6	-0.10130076
96	0x3dfeb0c6	0.124360606
97	0x3da387a4	0.07984856
98	0x3e38e0ac	0.18054456
99	0x3e916084	0.28393948
100	0x3eb9b02d	0.36267224
101	0xbd73c0f1	-0.059510175
102	0x3e088704	0.13332754
103	0x3ed509d1	0.41609052
104	0xbeadd414	-0.33950865
105	0x3d48dd1f	0.049039003
106	0x3ec6d537	0.38834545
107	0x3e929167	0.28626558
108	0x3e5f21e1	0.21790268
109	0xbe881d1a	-0.26584703
110	0x3e1dd057	0.15411507
111	0xbe60c886	-0.21951494
112	0x3db093a7	0.086219124
113	0x3ea9cb90	0.33163118
114	0xbeb90550	-0.36136866
115	0xbe2d2218	-0.16907537
116	0x3e009ebb	0.12560551
117	0x3e9db38b	0.30801043
118	0xbd2911f2	-0.04127688
119	0xbe1c12e3	-0.1524158
120	0xbefbb389	-0.49160412
121	0x3e75b0dc	0.23993248
122	0x3e1f6ddb	0.1556925
123	0x3ed5453c	0.41654384
124	0x3e15ec75	0.14640982
125	0x3ec397b8	0.3820169
126	0xbdeae5ff	-0.114696495
127	0xbec63ad6	-0.38716763
128	0xbe1a4e35	-0.15068896
129	0x3c911047	0.017707957
130	0x3e2e7bad	0.17039366
131	0xbf482ada	-0.78190386
132	0xbeed6f5c	-0.46374023
133	0xbf054abe	-0.5206717
134	0x3e61db70	0.22056365
135	0xbec54585	-0.38529602
136	0xbedb1564	-0.42789757
137	0xbe5ce694	-0.21572334
138	0xbeb8992c	-0.3605436
139	0xbed002f6	-0.4062726
140	0x3f10f4cb	0.56623524
141	0xbec7a634	-0.3899399
142	0xbdb4e865	-0.08833388
143	0xbed63396	-0.41836232
144	0x3dcc839f	0.09986042
145	0x3eef3734	0.46721804
146	0xbf1450f4	-0.57936025
147	0x3e0531f1	0.13007332
148	0xbe8a6b7e	-0.27035135
149	0x3d8a0be0	0.06740546
150	0xbd5f0256	-0.054445587
151	0xbedaf24b	-0.4276298
152	0xbe0813ad	-0.13288756
153	0xbeb27c19	-0.34860304
154	0xbeddca6f	-0.43318507
155	0x3dc7aa4e	0.0974928
156	0xbed45947	-0.41474363
157	0x3ed45862	0.4147368
158	0xbed6c5c1	-0.4194775
159	0xbdc63844	-0.096787006
160	0xbee0a971	-0.43879274
161	0xbcb23983	-0.02175594
162	0xbe8eb537	-0.2787263
163	0x3ce0bfb5	0.027435163
164	0xbdb73eaa	-0.08947499
165	0xbe8aafba	-0.27087194
166	0xbd9c1540	-0.076212406
167	0xbda94e03	-0.08266833
168	0xbe831dfd	-0.25608817
169	0xbd7bc543	-0.06146742
170	0x3e0723db	0.13197272
171	0x3e66dd3c	0.22545332
172	0x3e11d755	0.14242299
173	0xbd4db18e	-0.050218157
174	0xbea7dfa0	-0.327878
175	0xbe71997e	-0.23593709
176	0xbec40d4e	-0.382914
177	0xbea6c4f6	-0.32572144
178	0xbee26d33	-0.44223937
179	0xbb417401	-0.0029518607
180	0xbd924532	-0.07142104
181	0x3ec8abdf	0.39193627
182	0x3ee47a7e	0.44624704
183	0xbe1f8cc2	-0.15581039
184	0xbeb3bdce	-0.35105747
185	0xbe57cd34	-0.21074373
186	0xbe1504a0	-0.14552546
187	0x3d9f4463	0.077767156
188	0x3d3b89c9	0.0457857
189	0x3e82fe4a	0.25584632
190	0xbec5f2b5	-0.38661733
191	0xbd4068f1	-0.04697508
192	0xbeb4bd0e	-0.35300487
193	0xbeab915b	-0.33509335
194	0xbe9fa633	-0.31181487
195	0x3ec81b57	0.3908336
196	0x3bdc25db	0.00671838
197	0x3e80d7c3	0.25164613
198	0x3e55a0d4	0.20862132
199	0xbde6f725	-0.11277608
200	0xbe8933e4	-0.26797402
201	0xbe8ae6d2	-0.27129227
202	0xbe3a63fc	-0.18202204
203	0xbe85ec88	-0.26157022
204	0xbec34117	-0.38135597
205	0xbd370c83	-0.044689666
206	0xbdca29e7	-0.098712735
207	0xbea84079	-0.3286169
208	0xbdd30401	-0.10303498
209	0x3b5a1bb6	0.0033280677
210	0x3e34eed9	0.17669238
211	0x3e728063	0.23681788
212	0x3ed1ec2b	0.41000494
213	0x3d913ebc	0.07092044
214	0xbebfc94d	-0.37458268
215	0xbe7a5c05	-0.24449165
216	0x3ecb746f	0.3973727
217	0x3eaf2312	0.34206444
218	0xbcc70ecc	-0.024299048
219	0x3d3e70f1	0.046494428
220	0xbed28ff3	-0.4112545
221	0xbf053079	-0.5202709
222	0xbe893066	-0.26794738
223	0xbf0c0fae	-0.54711425
224	0x3e13aed2	0.14422157
225	0xbe7dd851	-0.2478955
226	0x3ee4301a	0.4456795
227	0x3e759fcd	0.2398674
228	0xbe89877b	-0.26861176
229	0x3dce77d4	0.10081449
230	0x3a7958d7	0.00095118344
231	0x3ea1f0f5	0.31629148
232	0x3e1a1919	0.15048636
233	0xbe797067	-0.24359284
234	0xbd73d84a	-0.05953244
235	0xbea0c2f7	-0.31398746
236	0xbe7a801c	-0.24462932
237	0x3cc62a02	0.024189953
238	0x3d121e66	0.03567352
239	0xbebfef74	-0.37487376
240	0xbe9aadef	-0.30210826
241	0x3d16ff69	0.03686467
242	0x3ec0facc	0.37691343
243	0xbe922768	-0.2854569
244	0xbe627bd5	-0.2211755
245	0xbee5c3d4	-0.44875968
246	0x3ed5d42e	0.41763443
247	0xbec44695	-0.383351
248	0xbe059445	-0.13044842
249	0x3e5de70c	0.21670169
250	0x3e5480cf	0.20752262
251	0xbe4efe28	-0.2021414
252	0x3dbe3990	0.09288323
253	0xbe9094ec	-0.28238618
254	0xbe695dc5	-0.22789676
255	0x3d00af27	0.03141704

linear_relu_stack.0.bias f4 [64]
0	0xbdf1fd5e	-0.11815904
1	0x3dd8e15f	0.10589861
2	0xbe807f3e	-0.25097078
3	0x3dc31412	0.095253125
4	0xbed26952	-0.41095978
5	0xbeacf655	-0.33781686
6	0xbe96b78c	-0.2943691
7	0x3e9684a3	0.2939807
8	0x3e3c9b58	0.18418634
9	0x3de7dcb4	0.11321393
10	0xbdd55e00	-0.1041832
11	0xbdcdc746	-0.10047774
12	0xbe7ddb31	-0.24790646
13	0xbec6195a	-0.38691217
14	0x3eaa7452	0.3329187
15	0x3ec01dc7	0.37522718
16	0x3dda8896	0.10670583
17	0x3dfa4a35	0.12221185
18	0xbea3e53f	-0.32010838
19	0xbbccec34	-0.0062537435
20	0x3ea0bcff	0.31394193
21	0x3e659138	0.22418678
22	0x3e681624	0.22664696
23	0xbe28fa17	-0.16501652
24	0x3eb9d186	0.36292666
25	0x3badb712	0.0053013647
26	0xbebe0eeb	-0.37120757
27	0xbe80baf4	-0.25142634
28	0x3e5ad8f1	0.21371819
29	0x3c6b222c	0.014351409
30	0x3e83c3c3	0.25735292
31	0x3eda6079	0.42651728
32	0xbe4a118f	-0.1973326
33	0xbeb04354	-0.34426367
34	0xbe8e4ff3	-0.2779537
35	0xbd3e6a5b	-0.046488147
36	0xbe2672b8	-0.16254699
37	0xbdc86339	-0.0978455
38	0xbed41129	-0.41419342
39	0x3e1e21e3	0.15442614
40	0xbdb110ad	-0.08645759
41	0xbe9f0c1f	-0.31063935
42	0xbe11736c	-0.14204186
43	0xbed62686	-0.41826266
44	0xbef08434	-0.46975863
45	0xbe4da70b	-0.20083253
46	0x3d862cb7	0.065514974
47	0x3daef712	0.08543219
48	0xbedb1165	-0.42786708
49	0x3e2a3785	0.16622742
50	0x3daae236	0.083439276
51	0xbc7017b2	-0.014654087
52	0x3d32c51f	0.04364502
53	0x3d103cac	0.03521411
54	0x3ca61880	0.020275354
55	0x3ebe4fac	0.3717016
56	0xbf0db9ca	-0.55361617
57	0xbec597d0	-0.38592386
58	0xbe07e7eb	-0.13272063
59	0xbd8f9817	-0.07011431
60	0xbbeda03b	-0.007251767
61	0x3e98706e	0.29773277
62	0xbe821b5f	-0.25411507
63	0xbed6c616	-0.41948003

linear_relu_stack.2.weight f4 [32, 64]
0	0xbad8c480	-0.0016538054
1	0xbdee288d	-0.11628828
2	0xbd3f4f1e	-0.04670631
3	0xbed907f4	-0.4238888
4	0x3d0dbc2f	0.034603294
5	0xbd9c5fd5	-0.07635466
6	0xbd930e6a	-0.07180484
7	0xbdb0d95e	-0.086352095
8	0x3dfe3796	0.12412946
9	0xbbdedd80	-0.006801307
10	0xbd0b31cc	-0.033983037
11	0x3db3bc98	0.08776206
12	0xbdb906b0	-0.09034479
13	0x3d162ce4	0.036663905
14	0xbdca52b0	-0.09879053
15	0xbd8d116f	-0.06888091
16	0xbe162b30	-0.14664912
17	0xbd62c6c9	-0.055365358
18	0x3d3c7373	0.04600854
19	0xbc8c9b08	-0.017163768
20	0xbc822918	-0.015888736
21	0xbdb0d466	-0.08634262
22	0xbdd5eef2	-0.10445966
23	0xbcb022a8	-0.0215009
24	0xbd37a4f2	-0.04483504
25	0xbd250992	-0.04029233
26	0x3d93b53b	0.07212301
27	0x3c379340	0.011204541
28	0xbda87dcf	-0.08227121
29	0xbdc9163c	-0.09818694
30	0x3aa48380	0.0012551397
31	0x3cff7a08	0.031186119
32	0xbc6afe30	-0.01434283
33	0x3db115c0	0.086467266
34	0x3dbb651c	0.091501445
35	0x3e093dd5	0.13402493
36	0xbd6a35e8	-0.057180315
37	0x3db74a3d	0.08949707
38	0xbd7b0750	-0.06128627
39	0x3dc541ac	0.096316665
40	0xbdf74482	-0.12073614
41	0x3de2a0be	0.110658154
42	0xbdfa4ff2	-0.122222796
43	0x3ca30084	0.019897707
44	0x3d946118	0.07245082
45	0xbc684db3	-0.014178681
46	0xbda1775c	-0.07884094
47	0x3dcfb358	0.10141629
48	0xbd85bf68	-0.065306485
49	0x3c60e65f	0.0137268
50	0xbddcc90e	-0.10780536
51	0xbd97a706	-0.07404904
52	0x3e3708a8	0.17874396
53	0xbd4c96c4	-0.04994847
54	0xbdef3da9	-0.116816826
55	0xbe03295e	-0.12808749
56	0x3da1d8ae	0.079026565
57	0xbe06f31d	-0.13178678
58	0xbdc90702	-0.0981579
59	0x3d364a7c	0.044504628
60	0xbdb91018	-0.09036273
61	0xbde1d2bd	-0.11026523
62	0xbdd8879c	-0.105727404
63	0x3de1957c	0.1101484
64	0x3d329084	0.043594852
65	0xbd7e0178	-0.06201312
66	0xbd2c84cb	-0.04211883
67	0xbe1e5e1e	-0.1546559
68	0xbc7b10cb	-0.015323828
69	0xbae26e4a	-0.00172753
70	0x3cf306d8	0.02966635
71	0xbbe78d60	-0.0070664138
72	0x3d9a2ee0	0.07528472
73	0x3dd3deb6	0.10345213
74	0xbd0190a2	-0.031632073
75	0xbd97aee2	-0.07406403
76	0x3d4b5108	0.049637824
77	0xbc460fa0	-0.012088686
78	0xbd35b1a4	-0.044358864
79	0x3cbb9dd8	0.022902414
80	0xbe654582	-0.22389796
81	0xbe3d4138	-0.1848191
82	0xbe42d484	-0.19026381
83	0xbdd527b3	-0.10407963
84	0x3de6104e	0.112335786
85	0x3dee5262	0.11636807
86	0xbd532bcc	-0.05155544
87	0x3c9ee720	0.019397318
88	0xbe19e88a	-0.15030113
89	0xbe19ebf6	-0.15031418
90	0xbe126aff	-0.14298628
91	0x3c97ab28	0.01851423
92	0xbddc32fc	-0.10751912
93	0xbbcb5dc1	-0.0062062447
94	0x3da96030	0.082702994
95	0x3deed37a	0.1166143
96	0xbdb1961c	-0.08671209
97	0xbc586d00	-0.013209581
98	0xbd562824	-0.052284375
99	0xbcee7150	-0.029106766
100	0x3de0f98e	0.10985099
101	0xbe1485b5	-0.1450413
102	0xbc5ff770	-0.013669834
103	0xbd180ba0	-0.03712046
104	0xbdc9cc3a	-0.09853406
105	0xbc3e4480	-0.011613011
106	0x3db4e0ce	0.088319406
107	0xbe6c0f69	-0.23052754
108	0xbe429da6	-0.1900545
109	0x3b38a702	0.0028175716
110	0x3dbaad2e	0.09115063
111	0xbd96ee94	-0.07369724
112	0xbdc4967e	-0.095990166
113	0xbe51401b	-0.2043461
114	0x3da251a8	0.07925731
115	0xbcc0eaf0	-0.023549527
116	0xbda3b450	-0.07993376
117	0xbcf8412f	-0.03030452
118	0x3d131f18	0.035918325
119	0x3ad13275	0.0015960472
120	0xbe3a9534	-0.18220979
121	0xbe0e677a	-0.1390666
122	0x3cbd0988	0.023075834
123	0x3c014ae0	0.007891387
124	0x3d21041c	0.03931056
125	0xbc0e3cb1	-0.008681462
126	0xbd299d40	-0.04140973
127	0xbbca4d60	-0.0061737746
128	0x3dd4f7a0	0.10398793
129	0xbe1b4fe7	-0.15167199
130	0x3b809b09	0.0039247316
131	0xbde4175d	-0.11137269
132	0xbd36a5a7	-0.044591572
133	0x3d0eeb21	0.034892205
134	0xbdc8c7ae	-0.09803711
135	0xbdf959b4	-0.12175313
136	0x3d976dca	0.073939875
137	0x3de5b746	0.11216597
138	0xbd652902	-0.05594731
139	0xbcf6e128	-0.03013666
140	0xbddbff4c	-0.107420534
141	0xbda7c89a	-0.081925586
142	0xbdf6a458	-0.12043065
143	0x3c469815	0.01212122
144	0xbdd4ff72	-0.10400285
145	0x3d543d78	0.051816434
146	0x3c116c37	0.008875898
147	0xbd1416bb	-0.03615449
148	0x3bdf7da0	0.0068203956
149	0xbdbcc564	-0.09217337
150	0x3df33876	0.118760034
151	0xbda3bc84	-0.07994941
152	0xbdf6a152	-0.12042488
153	0xbe0572f9	-0.1303214
154	0x3d65fa98	0.056147188
155	0x3db2524c	0.08707103
156	0xbcedff38	-0.029052362
157	0xbe201920	-0.15634584
158	0x3d99271a	0.07478161
159	0xbd02c758	-0.03192839
160	0xbdf5d23c	-0.1200299
161	0x3c12f030	0.008968398
162	0xbd094aa8	-0.033518463
163	0xbe39526a	-0.18097845
164	0x3de8b6d6	0.11362998
165	0xbdd911ed	-0.10599122
166	0x3cf87c58	0.03033273
167	0x3dfbb684	0.122906715
168	0xbbc58980	-0.006028354
169	0x3c4fae33	0.01267581
170	0x3dfb0b36	0.12257998
171	0xbdf1a484	-0.11798957
172	0xbd8bc55e	-0.06824754
173	0x3ca20096	0.01977567
174	0xbd7d8d23	-0.061902177
175	0xbd2f9fc0	-0.04287696
176	0x3d81116a	0.063021496
177	0xbd11600f	-0.035492
178	0xbdea97ee	-0.114547595
179	0x3ab1c180	0.0013561696
180	0xbcc8e736	-0.024524312
181	0x3cb5aa33	0.022175884
182	0x3c99aadb	0.018758228
183	0xbe25e1df	-0.16199444
184	0xbe391e1c	-0.18077892
185	0xbdd05c52	-0.10173859
186	0x3c8d3850	0.017238766
187	0xbdacbfbc	-0.08435008
188	0xbdffc462	-0.12488629
189	0xbd64e7bc	-0.05588506
190	0x3c759300	0.014988661
191	0xbc74a850	-0.014932707
192	0x3daa5dd0	0.083186746
193	0xbc2039f0	-0.009779438
194	0xbd2ce220	-0.042207837
195	0xbdce5908	-0.10075575
196	0xbd768534	-0.060185626
197	0x3dfb0bee	0.12258135
198	0x3dbcab34	0.09212342
199	0xbc1a87b0	-0.0094317645
200	0xbdcc8606	-0.099865004
201	0x3d624420	0.05524075
202	0xbdfa424c	-0.122196764
203	0x3c8e50f0	0.017372578
204	0x3d8a574c	0.06754932
205	0xbd0cf348	-0.0344117
206	0xbc692f50	-0.014232472
207	0x3da296c2	0.07938911
208	0xbdfb379c	-0.12266466
209	0x3dce194c	0.10063419
210	0xbdcdc12a	-0.10046609
211	0x3db7f5cc	0.08982429
212	0x3da821fa	0.082096055
213	0xbdb9162e	-0.090374336
214	0x3bc5e8a0	0.006039694
215	0xbdc78050	-0.097412705
216	0xbdf017cc	-0.11723289
217	0xbdcdbddc	-0.100459784
218	0x3d99f9d2	0.075183526
219	0xbd1409c8	-0.03614214
220	0xbd31542c	-0.043293163
221	0x3defe654	0.117138535
222	0x3ddd233e	0.107977375
223	0x3d5684c8	0.052372724
224	0xbd9a3932	-0.075304404
225	0xbd1c72a4	-0.038195267
226	0xbd835f7c	-0.064146966
227	0xbd8e13de	-0.06937383
228	0x3dac688a	0.08418377
229	0x3ca22fb8	0.019798145
230	0xbca5fc10	-0.020261794
231	0x3da1063c	0.07862517
232	0xbd687fc4	-0.05676247
233	0x3df8939e	0.12137531
234	0x3dea2750	0.114332795
235	0x3dbbbd82	0.09167005
236	0xbd3b1eac	-0.045683548
237	0x3dae0954	0.08497873
238	0x3c314e10	0.010821834
239	0xbdf89a3e	-0.12138794
240	0xbaa49500	-0.0012556612
241	0xbdb8c44e	-0.09021817
242	0x3cd24bf0	0.025670975
243	0x3d342f54	0.043990448
244	0xbcae2240	-0.021256566
245	0xbde095b0	-0.109660506
246	0x3cdfa920	0.027302325
247	0xbcc11b38	-0.02357255
248	0xbdf4b248	-0.11948067
249	0x3d1bf8f4	0.038079217
250	0x3ce629e8	0.028096154
251	0xbdb0884a	-0.08619745
252	0x3dc057fe	0.09391783
253	0xbd5058b0	-0.05086583
254	0x3d71c340	0.059024096
255	0x3d0d9460	0.03456533

linear_relu_stack.2.bias f4 [32]
0	0x3daeab2f	0.085287444
1	0x3c1eab7b	0.009684439
2	0xbe091894	-0.13388282
3	0xbcf5e718	-0.03001742
4	0x3ccf10a8	0.025276497
5	0x3cb1f229	0.021721916
6	0xbe171050	-0.14752316
7	0xbda6eba8	-0.081504166
8	0xbddff569	-0.1093548
9	0x3dfbadf0	0.12289035
10	0x3de237aa	0.11045773
11	0x3d0b1c4f	0.033962544
12	0x3d2e77a5	0.04259457
13	0x3d9a6213	0.075382374
14	0x3cb9fed7	0.022704525
15	0xbdaf76dc	-0.085675925
16	0x3d87a8ec	0.06624016
17	0x3d3bf6bc	0.0458896
18	0xbd2e69a0	-0.0425812
19	0x3ccc60c0	0.024948478
20	0xbdeecaea	-0.116597965
21	0xbd25aea4	-0.040449753
22	0xbdfda5f4	-0.12385169
23	0xbe1bb238	-0.15204704
24	0x3ae1d280	0.0017228872
25	0xbda99cb6	-0.08281843
26	0xbdc914bd	-0.09818409
27	0xbc5f53a0	-0.013630778
28	0xbda38122	-0.079836145
29	0x3d0df345	0.034655828
30	0x3ce442f8	0.027863964
31	0xbdde200a	-0.10845955

linear_relu_stack.4.weight f4 [16, 32]
0	0x3ce85654	0.028361477
1	0x3c879ded	0.016554797
2	0xbd80fb25	-0.06297902
3	0xbde83004	-0.11337283
4	0xbe143a70	-0.14475417
5	0xbe122291	-0.14270999
6	0xbdfd3261	-0.12363125
7	0x3def6b82	0.11690427
8	0xbd961936	-0.07329027
9	0xbdfe1f89	-0.124083586
10	0x3e23122a	0.15924898
11	0xbc42262e	-0.011849923
12	0x3dbcc4d1	0.09217227
13	0xbe24fc2f	-0.16111825
14	0xbddc3d9c	-0.107539386
15	0xbd3b85fd	-0.045782078
16	0xbdf6719d	-0.12033389
17	0xbd928330	-0.07153928
18	0x3d01c9f4	0.031686738
19	0x3d1d4040	0.03839135
20	0x3d65bf71	0.056090776
21	0x3d283958	0.041070312
22	0xbd8e4ac0	-0.06947851
23	0xbd08c7f9	-0.033393834
24	0x3b0184f2	0.001976308
25	0xbdc6f558	-0.09714764
26	0xbe157532	-0.14595488
27	0xbd1cda2f	-0.038294014
28	0xbd8ec0a6	-0.069703385
29	0x3da309ce	0.079608545
30	0xbd747161	-0.05967844
31	0x3d933144	0.07187131
32	0xbd107228	-0.035265118
33	0x3dd08b9b	0.10182878
34	0x3d9c8f46	0.07644515
35	0xbd9c8f71	-0.07644547
36	0x3e03f920	0.12888002
37	0x3d883175	0.06650058
38	0xbda06fd4	-0.078338295
39	0xbc61f8ac	-0.013792198
40	0xbe55d6d3	-0.2088273
41	0xbe0d7dc8	-0.13817513
42	0x3cf689a8	0.030094936
43	0xbd85c95d	-0.065325476
44	0x3df16abe	0.117879376
45	0x3cdec01a	0.02719121
46	0xbc5a0659	-0.013307177
47	0xbd6b0e96	-0.057386957
48	0xbdcb5efb	-0.099302255
49	0xbe2a586f	-0.16635297
50	0x3ab91ac3	0.0014122355
51	0x3e0ed818	0.1394962
52	0xbc724ec1	-0.014789284
53	0xbe21559c	-0.15755314
54	0x3e2a7723	0.1664701
55	0x3dec1382	0.11527158
56	0xbd94dc8f	-0.07268631
57	0x3d066d13	0.032818865
58	0xbd8532f6	-0.06503861
59	0x3e249460	0.16072226
60	0x3a91a7dc	0.0011112648
61	0x3db62d3e	0.08895348
62	0x3d3c8a1d	0.046030153
63	0xbcee9a9a	-0.029126454
64	0xbd83646b	-0.064156376
65	0x3db764b2	0.08954753
66	0xbe070f1d	-0.13189359
67	0x3e10c466	0.1413742
68	0xbd48a23f	-0.048982855
69	0xbd9f5b44	-0.077810794
70	0xbc5730d5	-0.013134201
71	0xbe08c716	-0.13357195
72	0x3e0b155f	0.13582371
73	0xbde0deae	-0.10979973
74	0xbd87b66e	-0.066265926
75	0xbe2dcd0f	-0.16972755
76	0x3e2958ce	0.16537783
77	0xbe315e64	-0.17321163
78	0x3b962050	0.0045814887
79	0x3cda6086	0.026657354
80	0xbdaec283	-0.08533194
81	0x3d8f3b06	0.0699368
82	0xbe1bb702	-0.1520653
83	0xbdc90f0b	-0.09817322
84	0x3ca66368	0.020311072
85	0xbdeb7a4d	-0.114979364
86	0xbdc47980	-0.09593487
87	0xbe12c658	-0.14333475
88	0xbde332ec	-0.11093697
89	0x3dcffe96	0.1015598
90	0xbb8e246c	-0.004337838
91	0xbd38ce97	-0.045118894
92	0xbb43e9ab	-0.0029893916
93	0xbc1eaddf	-0.009685009
94	0xbcb7996e	-0.022412028
95	0x3d287e27	0.041135933
96	0xbdb3e5ee	-0.0878409
97	0xbd38d998	-0.04512939
98	0xbb396f74	-0.002829519
99	0xbd59ae6c	-0.053144857
100	0x3d7daeb8	0.061934203
101	0x3cab52a8	0.020913437
102	0x3df95331	0.121740706
103	0xbd702662	-0.058630355
104	0xbd4035c0	-0.04692626
105	0x3c765d3d	0.015036878
106	0x3d4686a3	0.048468243
107	0x3dbc48c4	0.091935664
108	0xbcc95ae6	-0.024579477
109	0xbdb31f08	-0.08746153
110	0xbceb4ce2	-0.028723184
111	0x3cc06ff4	0.023490883
112	0x3dc8dfd2	0.09808315
113	0xbdb2c23d	-0.08728454
114	0xbda680d9	-0.081300445
115	0xbd451976	-0.048119985
116	0xbbc6a340	-0.0060619414
117	0xbdc22d1f	-0.094812624
118	0xbde8985e	-0.11357187
119	0xbc6c8fb7	-0.014438561
120	0x3e0490c3	0.12945847
121	0xbbfbcf09	-0.0076845926
122	0x3d0d5b18	0.034510702
123	0xbcd0180e	-0.025402095
124	0xbde434cc	-0.11142883
125	0xbdf7dd22	-0.121027246
126	0xbe345381	-0.17609979
127	0x3e165187	0.14679538
128	0xbe48359d	-0.19551702
129	0xbe2ef74c	-0.17086524
130	0xbd2b4add	-0.041819442
131	0xbde5e285	-0.11224846
132	0xbe1ecfcb	-0.15508954
133	0xbe2c7785	-0.16842468
134	0x3c59eace	0.013300611
135	0x3ce1e912	0.027576957
136	0xbdce5910	-0.10075581
137	0x3c5c48ea	0.013445118
138	0xbdf79b95	-0.12090222
139	0xbe2933a7	-0.1652361
140	0x3d714961	0.05890787
141	0xbc501b39	-0.012701803
142	0xbe5cd2ed	-0.21564837
143	0x3e0b6392	0.13612202
144	0xbbe15379	-0.006876406
145	0xbe2318cf	-0.15927432
146	0xbdbc9fb1	-0.09210146
147	0xbe345361	-0.17609932
148	0xbdc891f9	-0.09793467
149	0xbe115575	-0.14192756
150	0xbe2f38b4	-0.17111474
151	0x3d636ab6	0.05552169
152	0x3c8281b1	0.015930982
153	0x3d879bb5	0.06621496
154	0xbe41a10e	-0.18909094
155	0xbe2b4786	-0.16726503
156	0x3b4087d1	0.0029377828
157	0xbdf04ab8	-0.117330015
158	0xbdf87bae	-0.12132965
159	0xbdbc0330	-0.091802955
160	0xbd99a85f	-0.07502817
161	0xbe13114e	-0.1436207
162	0xbc7eaf53	-0.01554473
163	0xbd312a07	-0.04325297
164	0x3d8cbd11	0.06871999
165	0xbe4869ff	-0.19571684
166	0x3db3d927	0.08781653
167	0x3c313c20	0.010817558
168	0x3d5d16d1	0.053976838
169	0xbd36ad64	-0.044598952
170	0xbe317ab0	-0.17331958
171	0x3e039640	0.12850285
172	0x3e0e5c4c	0.13902396
173	0x3cac2a88	0.021016374
174	0xbde6582e	-0.11247288
175	0x3e27e5b6	0.16396222
176	0xb98a3d48	-0.0002636707
177	0x3c8a908b	0.016914627
178	0x3bd86bc3	0.006604643
179	0xbb8359ef	-0.0040085237
180	0x3c4acd39	0.01237803
181	0x3d9a3d4e	0.07531224
182	0x3e20caa8	0.15702307
183	0x3e1f6a1a	0.15567818
184	0xbe00af41	-0.12566854
185	0x3e34a59d	0.17641301
186	0xbcd6e6aa	-0.026233036
187	0x3d94c94a	0.07264955
188	0x3cc438e9	0.023952918
189	0x3df2a305	0.118475
190	0xbc414ef5	-0.01179861
191	0x3dbf1a8e	0.09331237
192	0xbd02df29	-0.031951103
193	0xbd75efe1	-0.06004322
194	0xbe24c90a	-0.16092315
195	0xbd4d5fb5	-0.0501401
196	0x3e2bb531	0.16768338
197	0xbce384ea	-0.02777334
198	0xbd76a733	-0.060218047
199	0xbdf692bc	-0.12039706
200	0x3e1a82dd	0.15088983
201	0xbba19482	-0.0049310336
202	0x3dfd50dc	0.12368938
203	0x3e0a8ea4	0.13530976
204	0x3d22806b	0.03967325
205	0x3d92d4c8	0.07169491
206	0xbcdb1076	-0.026741248
207	0xbde27470	-0.11057365
208	0x3cc70e17	0.02429871
209	0xbd52b0b1	-0.051438037
210	0xbdeac356	-0.114630386
211	0x3d7bcad6	0.061472736
212	0xbe2f43d2	-0.17115715
213	0xbd2918b9	-0.041283343
214	0xbde427ea	-0.111404255
215	0xbdac14fc	-0.0840244
216	0x3e0aea58	0.13565958
217	0xbe22ac19	-0.15885963
218	0xbe15e9ca	-0.14639965
219	0x3e0357a9	0.12826408
220	0x3dd4aa21	0.10384012
221	0x3e186e79	0.14885892
222	0xbd9cf667	-0.07664185
223	0x3e110d1f	0.14165162
224	0x3d3afdb8	0.04565212
225	0x3d21cd58	0.03950247
226	0xbdbb10b2	-0.09134044
227	0xbd61958b	-0.055074256
228	0x3dbbf323	0.09177234
229	0xbe26733a	-0.16254893
230	0xbcd936e6	-0.026515435
231	0xbe2e98af	-0.17050432
232	0x3cf2e3e0	0.029649675
233	0x3c797a81	0.015226961
234	0x3d106ccd	0.03526001
235	0xbcbdc1f8	-0.02316378
236	0x3d2abebc	0.041685805
237	0xbe2f76ee	-0.17135212
238	0xbe6a9c27	-0.2291113
239	0x3d8646d9	0.06556482
240	0xbdec1ed8	-0.115293205
241	0x3d3b6a5e	0.045755737
242	0xbe196c12	-0.14982632
243	0x3d0354f6	0.032063447
244	0xbe4ce5a4	-0.20009476
245	0x3e2dde73	0.16979389
246	0x3da2a3e8	0.07941419
247	0xbd9be9b5	-0.076129355
248	0x3e00a0a6	0.12561283
249	0x3e13c12b	0.14429156
250	0x3d1af770	0.03783363
251	0xbdfafef8	-0.12255663
252	0x3cdaea80	0.026723146
253	0xbe6e6b03	-0.23283009
254	0x3dceca47	0.10097175
255	0x3d704df4	0.058668092

linear_relu_stack.4.bias f4 [16]
0	0xbd8ed267	-0.06973725
1	0x3d9e8cf4	0.077417284
2	0x3e003538	0.12520301
3	0xbe0374c4	-0.12837511
4	0xbdb14556	-0.08655803
5	0xbe35bdf6	-0.17748246
6	0x3debf3b1	0.1152109
7	0xbe17bb87	-0.1481763
8	0x3d83f52c	0.06443247
9	0x3e2b4ad3	0.16727762
10	0x3e17a552	0.14809158
11	0x3e0e2d8f	0.13884567
12	0xbda3e8ce	-0.08003388
13	0xbd32c156	-0.04364141
14	0xbdf43397	-0.119239025
15	0xbc94b68a	-0.018153448

linear_relu_stack.6.weight f4 [1, 16]
0	0x3e44319c	0.1915955
1	0xbbaf39c2	-0.0053474614
2	0x3c258ba0	0.01010409
3	0xbaf57fba	-0.0018730082
4	0x3e27c389	0.16383184
5	0xbdce0c2b	-0.100609146
6	0xbd994b98	-0.074851215
7	0x3c2c3860	0.010511488
8	0x3db10f1d	0.08645461
9	0xbdcb99ee	-0.09941469
10	0xbaf7616a	-0.0018873636
11	0xbdd365d8	-0.103221595
12	0xbdb863ad	-0.09003387
13	0x3b3d87cf	0.002892006
14	0xbe3fa077	-0.18713556
15	0xbc35b37e	-0.011090158
